models/best_model.pt (torch, 23654 bytes, 6 tensors)

features.0.weight f4 [16, 3, 3, 3]
-0.14902823 -0.056342106 -0.091748014 0.07585875 0.06584377 0.04388753 0.08644434 -0.012967553
-0.016436612 0.14096244 0.11189914 -0.11464496 -0.032164823 0.0066002063 -0.0023645465 -0.08096441
0.072634436 0.07413359 -0.17896332 0.1444922 0.13185154 0.07804098 0.029999757 -0.18876328
0.13630392 0.020683512 0.07039462 -0.065640226 0.03347343 0.11236788 0.095138155 -0.012750018
0.15430656 0.16902266 0.1830078 0.1583949 0.04745524 0.023381107 -0.07842204 0.004942819
-0.17656468 0.034448385 0.05030271 0.02217542 -0.01767031 -0.050032433 0.029468654 -0.0102366945
0.1292902 -0.08902994 -0.07458307 0.16518821 0.09099052 0.16834159 0.06207738 -0.12530418
0.021646887 0.018968541 -0.12670924 -0.07620813 -0.035255436 -0.1896955 0.11510198 0.08765152
0.12461651 0.014347023 -0.017058404 -0.047309007 0.18315177 -0.10660281 0.13868989 0.109986454
-0.06626796 -0.18341044 -0.08467846 0.12863702 0.0052931183 0.17488663 0.08306746 -0.02460884
0.16269688 0.16139263 0.054160703 -0.11609761 0.1842489 0.045926005 -0.10197216 -0.07047629
0.06419259 -0.16558057 -0.18906587 0.112693384 -0.0055539897 0.020971294 0.18548855 -0.053971503
0.14995015 -0.121554464 0.12593876 -0.11942351 -0.1863823 -0.060391914 0.1879235 -0.09809345
-0.021210486 0.09413906 0.034651145 0.026314564 0.16928542 0.105695665 0.05863239 0.053293776
-0.11960512 -0.086580224 -0.06863875 -0.01103585 -0.18101037 0.09610031 0.0026289742 0.013669413
0.08508024 -0.0035872776 -0.08505652 0.0030012743 0.18396914 0.114494644 -0.06867158 -0.16228569
0.14585096 0.12503286 -0.096336864 0.042237785 -0.11030418 -0.18928306 -0.19019213 -0.09798205
-0.08257901 0.0079095885 0.18435001 -0.03786151 0.09621302 -0.12847088 0.01536174 -0.08151121
0.11420016 -0.111439936 -0.04029571 0.15873732 -0.04857666 0.076788306 0.14794227 0.022681976
-0.034857187 -0.17150103 0.16749848 -0.09426827 -0.028992794 0.19028108 0.021623394 0.10967511
0.095905945 0.14502361 0.069704644 0.04490911 0.08494268 -0.026909515 0.013880982 -0.09810171
-0.11016141 0.05997391 0.1788325 -0.12416357 -0.14217152 0.15269554 0.04521678 0.065009326
0.020709094 -0.050308537 -0.108161755 -0.09215861 0.08290815 -0.01227074 0.051749952 -0.06603178
0.13189638 -0.18944049 0.10103568 0.089476086 -0.15980037 0.13385217 0.14880797 0.08637667
-0.09489862 -0.0058593457 -0.17561987 0.0069552083 -0.05703082 0.09176931 -0.18475677 -0.045289505
0.0033215194 0.17959179 0.18580423 -0.1523406 0.08459817 -0.09899488 0.14541824 -0.020217517
-0.043032832 0.13251327 0.029340524 0.0399185 0.028485207 -0.11055989 0.12987746 -0.07639465
0.18728568 -0.15667924 -0.18940532 0.18730481 0.06049662 0.028473001 0.035806634 0.18440765
-0.094045706 -0.10550649 -0.10495719 -0.049004592 -0.078017965 -0.1576175 0.15654245 0.08749409
0.19174686 -0.063163266 -0.029393427 -0.073508635 0.13919243 -0.020019667 -0.16981345 0.07498579
0.11723791 -0.13106859 0.12120621 -0.12593801 0.183309 0.059894856 0.16728333 -0.16593555
0.11719088 -0.144716 0.04874099 -0.11013569 0.122406594 0.03788411 -0.17739592 -0.027747924
00000000: db9a 18be fbc6 66bd 62e6 bbbd d55b 9b3d
00000010: 19d9 863d 69c3 333d bb09 b13d dc75 54bc
00000020: 13a6 86bc 7558 103e 602b e53d faca eabd
00000030: 43bf 03bd 8b46 d83b 82f6 1abb abd0 a5bd
00000040: 5dc1 943d 5ad3 973d 2942 37be c3f5 133e
00000050: 1704 073e f3d3 9f3d 0dc2 f53c 294b 41be
00000060: 4193 0b3e 7870 a93c 0e2b 903d 626e 86bd
00000070: 6f1b 093d 2221 e63d cbd7 c23d 74e5 50bc
00000080: 8a02 1e3e 4714 2d3e 6666 3b3e 4632 223e
00000090: 6d60 423d bc89 bf3c bc9b a0bd 5ff7 a13b
000000a0: 5fcd 34be c019 0d3d 370a 4e3d 3aa9 b53c
000000b0: 53c1 90bc cfee 4cbd 3f68 f13c cfb7 27bc
000000c0: a664 043e 5455 b6bd 02bf 98bd 1927 293e
000000d0: 3d59 ba3d bd61 2c3e da44 7e3d bd4f 00be
000000e0: d054 b13c ea63 9b3c 11c0 01be 0213 9cbd
000000f0: 0168 10bd 8a3f 42be 96ba eb3d a482 b33d
00000100: f136 ff3d c70f 6b3c 11be 8bbc 17c7 41bd
00000110: 238c 3b3e 9352 dabd b904 0e3e 9440 e13d
00000120: 7fb7 87bd f2cf 3bbe e76b adbd 6cb9 033e
00000130: e571 ad3b 7b15 333e 461f aa3d 7a98 c9bc
00000140: 039a 263e 1c44 253e 9dd7 5d3d 95c4 edbd
00000150: beab 3c3e e81c 3c3d c8d6 d0bd e055 90bd
00000160: 6877 833d f48d 29be 7c9a 41be cacb e63d
00000170: 3efe b5bb fecb ab3c b6f0 3d3e 3911 5dbd
00000180: 888c 193e 8cf1 f8bd 17f6 003e 5094 f4bd
00000190: 00db 3ebe 835d 77bd 056f 403e 38e5 c8bd
000001a0: 9dc1 adbc fbcb c03d 5cee 0d3d a491 d73c
000001b0: 2859 2d3e f876 d83d 8428 703d 934a 5a3d
000001c0: 87f3 f4bd f950 b1bd 7992 8cbd b6cf 34bc
000001d0: c85a 39be 3dd0 c43d de4a 2c3b acf5 5f3c
000001e0: 8d3e ae3d 8818 6bbb 1d32 aebd 07b1 443b
000001f0: 6862 3c3e 2b7c ea3d afa3 8cbd 382e 26be
00000200: f459 153e 9d08 003e 434c c5bd 8701 2d3d
00000210: 28e7 e1bd 6bd3 41be bac1 42be d0aa c8bd
00000220: 2f1f a9bd 3897 013c 40c6 3c3e ac14 1bbd
00000230: 550b c53d df8d 03be cfaf 7b3c 59ef a6bd
00000240: c6e1 e93d 9f3a e4bd 1d0d 25bd 098c 223e
00000250: 52f8 46bd 3043 9d3d 2e7e 173e 8dcf b93c
00000260: 69c6 0ebd f79d 2fbe b984 2b3e b90f c1bd
00000270: 4c82 edbc 0bd9 423e 8b23 b13c 589d e03d
00000280: 566a c43d 1281 143e 4fc1 8e3d 9df2 373d
00000290: 6ef6 ad3d 5871 dcbc 0f6d 633c 8de9 c8bd
000002a0: 4e9c e1bd 34a7 753d de1f 373e 7849 febd
000002b0: 6995 11be 385c 1c3e 3b35 393d 9c23 853d
000002c0: 1ea6 a93c 5310 4ebd e983 ddbd a7bd bcbd
000002d0: c0cb a93d 370b 49bc c2f7 533d ab3b 87bd
000002e0: d80f 073e b0fc 41be cbeb ce3d 3d3f b73d
000002f0: b5a2 23be 8b10 093e 1e61 183e 40e6 b03d
00000300: 355a c2bd c1ff bfbb b2d5 33be 84e8 e33b
00000310: 2699 69bd 8cf1 bb3d e130 3dbe 7d81 39bd
00000320: d9ad 593b e9e6 373e 7743 3e3e 2dff 1bbe
00000330: ce41 ad3d d4bd cabd 85e8 143e 359f a5bc
00000340: 3243 30bd 8fb1 073e 8a5b f03c 9581 233d
00000350: cf59 e93c 396d e2bd 99fe 043e cc74 9cbd
00000360: d1c7 3f3e 8670 20be 78f3 41be d5cc 3f3e
00000370: 4ecb 773d 3640 e93c faa9 123d 5cd5 3c3e
00000380: 099b c0bd c913 d8bd ccf3 d6bd 0ab9 48bd
00000390: e2c7 9fbd 7b66 21be aa4c 203e 1a30 b33d
000003a0: 4a59 443e be5b 81bd 7cca f0bc b28b 96bd
000003b0: 7688 0e3e 4900 a4bc 94e3 2dbe 2692 993d
000003c0: 6e1a f03d d836 06be f63a f83d e5f5 00be
000003d0: 5bb5 3b3e 4f54 753d 524c 2b3e 02eb 29be
000003e0: c601 f03d 6e30 14be a2a4 473d d28e e1bd
000003f0: 4fb0 fa3d 5e2c 1b3d 47a7 35be 9d4f e3bc

features.0.bias f4 [16]
0.06517797 -0.011163545 -0.11417229 0.0077655143 -0.060092475 0.068316326 -0.062759645 -0.1717216
0.016648572 0.17435598 -0.14978327 -0.17390648 0.15597773 -0.075532794 -0.18598643 -0.028860971
00000000: 077c 853d 4de7 36bc 29d3 e9bd db75 fe3b
00000010: 8723 76bd 6ee9 8b3d 2188 80bd cad7 2fbe
00000020: 9662 883c 608a 323e c960 19be 8a14 32be
00000030: a0b8 1f3e f0b0 9abd 3a73 3ebe d86d ecbc

features.2.weight f4 [32, 16, 3, 3]
0.042229205 0.072514765 0.0102713015 -0.011518082 0.014462411 0.049569607 0.0061911643 0.07480012
-0.012440334 -0.05187156 0.0109983785 0.058537595 0.07782175 0.054001443 -0.031518184 0.013302555
-0.060575187 0.0430414 -0.035778016 0.074896574 0.036162607 0.082240865 -0.028455615 -0.08142722
-0.017708283 0.057919305 0.0066120727 -0.003549993 -0.0073001683 -0.07629986 0.04754269 0.04041658
-0.028621972 0.004646778 -0.07278684 -0.0070073903 0.013540278 -0.0541299 0.052544516 -0.011466056
-0.026429504 0.05094747 0.010353059 0.06644313 -0.048974007 -0.05550217 -0.032595128 0.04351006
-0.0517767 0.050784737 -0.042285096 0.00018004577 -0.0028807423 0.050541006 0.034971487 -0.0464528
-0.03755505 -0.053807437 -0.01779597 -0.06767216 -0.02277568 0.009426038 -0.010470321 0.048190057
0.027132899 -0.07852341 0.06412503 -0.00897184 -0.04417629 0.05327528 -0.052153222 -0.0621611
0.074495405 0.06974798 -0.05796379 0.02953731 -0.0085479915 0.026041478 -0.051278226 -0.018880498
0.035887312 -0.06676982 -0.0014437139 0.016133826 -0.07014038 0.076915175 -0.06453391 0.07575398
0.08162856 0.017594289 -0.07262649 0.080449745 -0.0684635 0.00012708704 -0.00748986 0.08064936
0.06616682 -0.08000304 -0.082218945 -0.07570627 -0.07395392 -0.06854236 -0.038523685 0.039193362
-0.018409103 -0.06933969 0.016290536 -0.03271216 -0.03919373 0.070529 -0.06060974 -0.03782764
-0.010959446 -0.004643212 -0.0049510105 -0.032949835 -0.014335871 0.080525234 -0.07083148 0.017001798
-0.06101189 -0.063271716 -0.07579495 0.01930224 -0.063433096 -0.030996313 -0.051238023 -0.03929348
-0.002629469 0.08171897 0.053730678 -0.013133159 0.04733198 -0.04107828 -0.019864023 -0.059126895
-0.072873294 0.06069851 0.07852962 -0.0013058782 0.05496335 -0.06322345 0.06871879 0.05265584
0.036187798 -0.06558508 -0.008668533 0.08231949 -0.026358714 0.025302649 -0.0548053 0.040252816
0.018515259 -0.05660811 0.05825039 0.02484414 -0.03164357 0.02694891 0.043171905 0.032956045
0.0046616895 0.050312858 0.059621505 0.0009155671 -0.054493666 0.08108829 -0.017182609 0.056077324
-0.047189146 -0.012195578 -0.058860283 -0.06447109 -0.02710557 -0.043741792 0.0362104 -0.061034095
-0.006508897 0.07338059 -0.024011523 -0.043510847 -0.032835543 0.07523024 -0.010747135 -0.018220147
0.057308316 0.044593334 -0.05315923 0.064875536 -0.0146783795 -0.017228108 0.024600586 -0.04837997
0.07684346 -0.06934454 0.0728096 0.04192544 0.037706695 -0.038072042 0.0512172 0.06893179
0.015253971 0.006591986 -0.022718996 -0.06940366 -0.009822121 -0.020788392 -0.028556775 0.010284096
-0.05689911 -0.019123247 -0.06341796 -0.029541424 0.03686773 -0.06459512 -0.04747662 0.03875929
-0.002274255 -0.0059948466 -0.060835592 -0.03674401 0.07307409 0.0172338 0.028195184 -0.04903571
0.08175071 -0.007704278 -0.036319993 -0.04965555 0.003273527 0.0579566 0.008208573 0.07502511
-0.05604192 0.050781958 -0.019693663 0.029691815 -0.064842485 -0.07999396 0.062091015 -0.07753128
0.081299804 0.013747494 -0.073956445 0.020924639 -0.06744154 -0.057382952 -0.0655564 -0.08155405
0.06309754 -0.045647323 0.072980486 0.05190307 0.07652243 -0.035510562 -0.02685376 -0.05845028
00000000: 88f8 2c3d 9f82 943d f648 283c 56b6 3cbc
00000010: c0f3 6c3c 8009 4b3d 40df ca3b ce30 993d
00000020: 8bd2 4bbc 4677 54bd 8b32 343c 1ec5 6f3d
00000030: 0261 9f3d 9e30 5d3d 3619 01bd f6f2 593c
00000040: b01d 78bd 2e4c 303d f88b 12bd 6063 993d
00000050: 3e1f 143d e66d a83d c01b e9bc 50c3 a6bd
00000060: f610 91bc cb3c 6d3d 16aa d83b 00a7 68bb
00000070: 4036 efbb 1a43 9cbd 20bc 423d db8b 253d
00000080: a078 eabc 0044 983b 4411 95bd 409e e5bb
00000090: 0bd8 5d3c 50b7 5dbd eb38 573d 20dc 3bbc
000000a0: b082 d8bc 4bae 503d e09f 293c 5613 883d
000000b0: f898 48bd 3e56 63bd 7882 05bd 9b37 323d
000000c0: ce13 54bd a803 503d 2333 2dbd abca 3c39
000000d0: d6ca 3cbb 1604 4f3d 433e 0f3d 4b45 3ebd
000000e0: 53d3 19bd 3065 5cbd dbc8 91bc b497 8abd
000000f0: 1094 babc ab6f 1a3c b68b 2bbc f062 453d
00000100: d045 de3c e2d0 a0bd fc53 833d a0fe 12bc
00000110: 33f2 34bd 2e37 5a3d 9e9e 55bd a39c 7ebd
00000120: 0c91 983d 07d8 8e3d 706b 6dbd 3bf8 f13c
00000130: e00c 0cbc f054 d53c 1e09 52bd 46ab 9abc
00000140: 93fe 123d 9ebe 88bd 003b bdba 162b 843c
00000150: c2a5 8fbd b485 9d3d 5b2a 84bd e724 9b3d
00000160: e02c a73d e621 903c 32bd 94bd d6c2 a43d
00000170: 9736 8cbd ab42 0539 806d f5bb 7e2b a53d
00000180: 7882 873d a2d8 a3bd 6862 a8bd e40b 9bbd
00000190: 2775 97bd f05f 8cbd 03cb 1dbd 3889 203d
000001a0: b0ce 96bc f801 8ebd bb73 853c 30fd 05bd
000001b0: 9b89 20bd 8271 903d eb41 78bd 28f1 1abd
000001c0: 408f 33bc 1626 98bb 163c a2bb 68f6 06bd
000001d0: 00e1 6abc 6aea a43d 1810 91bd 5b47 8b3c
000001e0: 9be7 79bd 9a94 81bd 623a 9bbd bb1f 9e3c
000001f0: 36e9 81bd fbeb fdbc f6de 51bd 33f2 20bd
00000200: 2b53 2cbb 465c a73d b314 5c3d 762c 57bc
00000210: 2edf 413d b341 28bd e0b9 a2bc 0b2f 72bd
00000220: 983e 95bd 009f 783d 23d4 a03d 002a abba
00000230: 4021 613d 4c7b 81bd 70bc 8c3d a6ad 573d
00000240: a839 143d 7851 86bd 7606 0ebc 1f97 a83d
00000250: 3bee d7bc 8047 cf3c 867b 60bd 23e0 243d
00000260: 50ad 973c e8dd 67bd f697 6e3d f085 cb3c
00000270: b09c 01bd f6c3 dc3c 06d5 303d ebfc 063d
00000280: 16c1 983b db14 4e3d ae35 743d ab02 703a
00000290: c034 5fbd 9e11 a63d 8bc2 8cbc 56b1 653d
000002a0: 6849 41bd f6cf 47bc 7b17 71bd 6b09 84bd
000002b0: 800c debc 982a 33bd 5b51 143d e3fe 79bd
000002c0: 9648 d5bb 9048 963d d0b3 c4bc 6e38 32bd
000002d0: 907e 06bd 5012 9a3d c014 30bc 6b42 95bc
000002e0: 20bc 6a3d 80a7 363d 7ebd 59bd 77dd 843d
000002f0: 967d 70bc f621 8dbc 2b87 c93c 132a 46bd
00000300: 1b60 9d3d 8304 8ebd 331d 953d 03ba 2b3d
00000310: 5672 1a3d 6ef1 1bbd 20c9 513d 1c2c 8d3d
00000320: cbeb 793c 9601 d83b 301d babc 8223 8ebd
00000330: f6ec 20bc 6b4c aabc e6ef e9bc a07e 283c
00000340: 0b0f 69bd 5ba8 9cbc 47e1 81bd db00 f2bc
00000350: 9e02 173d 724a 84bd d876 42bd 10c2 1e3d
00000360: ab0b 15bb 6b70 c4bb be2e 79bd e380 16bd
00000370: dea7 953d e62d 8d3c 96f9 e63c abd9 48bd
00000380: eb6c a73d 2b74 fcbb 46c4 14bd 9e63 4bbd
00000390: ab88 563b e663 6d3d 407d 063c c4a6 993d
000003a0: 368c 65bd be00 503d 9b54 a1bc 403c f33c
000003b0: 23cc 84bd e0d3 a3bd 2653 7e3d b8c8 9ebd
000003c0: 8380 a63d 2b3d 613c 7a76 97bd 266a ab3c
000003d0: ca1e 8abd 630a 6bbd 6f42 86bd cf05 a7bd
000003e0: 4839 813d b0f8 3abd cb76 953d 5098 543d
000003f0: cbb7 9c3d 8673 11bd 6bfc dbbc 9069 6fbd

features.2.bias f4 [32]
-0.078644745 -0.049475282 -0.025707385 0.04306665 0.03209459 -0.0029160976 0.04865402 -0.008535475
0.071334414 -0.011784296 0.0034048855 0.082417905 0.016817322 0.081804916 -0.07263358 -0.005158047
-0.019322842 0.013948351 0.052208852 -0.047905933 0.067740194 0.049892932 0.026732555 -0.05623166
-0.06931597 -0.052551173 -0.052171677 -0.018604686 -0.062230878 0.064688906 0.021270474 -0.05749921
00000000: 7f10 a1bd 98a6 4abd 4b98 d2bc a866 303d
00000010: 9e75 033d 001c 3fbb 7049 473d 60d8 0bbc
00000020: c717 923d eb12 41bc 8024 5f3b b8ca a83d
00000030: 7bc4 893c 5689 a73d eac0 94bd d604 a9bb
00000040: f04a 9ebc a087 643c f3d8 553d 0339 44bd
00000050: 5fbb 8a3d 885c 4c3d 3bfe da3c 2b53 66bd
00000060: 88f5 8dbd e63f 57bd f8b1 55bd db68 98bc
00000070: cee5 7ebd 9e7b 843d 6b3f ae3c 4b84 6bbd

classifier.weight f4 [4, 32]
-0.16923007 0.0801664 0.066135526 0.06301255 0.059739154 -0.14643084 0.00090984505 0.13302043
-0.14518708 0.07841815 -0.010616685 0.0838995 -0.08170624 -0.077778175 -0.039466582 0.07530535
-0.11254142 0.17453714 0.050528254 0.04641196 0.0043537696 0.073505916 0.16367142 0.021074498
0.018051537 -0.07739929 -0.16087802 -0.17066418 0.019752879 -0.14705183 0.0041700723 -0.09657881
-0.10107358 -0.0515453 0.13914706 -0.0871259 0.0064935437 0.038515832 0.1128183 -0.021614695
-0.15627031 -0.13133319 0.10492736 -0.087978154 -0.15183124 -0.17262839 -0.13429573 0.08381442
-0.032100495 0.10223028 -0.07976546 -0.042400867 -0.08977498 -0.03479669 0.08407485 0.09882017
-0.0359717 -0.009275004 -0.17189541 -0.11726037 -0.09590789 0.10501068 -0.16936755 -0.024817012
-0.060230836 0.0629027 -0.091456555 0.17417847 0.11287029 0.11994624 -0.073162794 0.16508551
-0.17588922 0.03112275 -0.023608493 -0.1548494 0.15270871 -0.13629165 0.172853 0.16118434
0.107977755 0.0048999926 0.03463234 -0.069970004 0.07713615 -0.06735857 0.055182572 -0.12000343
0.17093574 0.050257694 0.15047307 -0.15444973 -0.12336216 0.12563705 -0.13467486 -0.12385856
0.08099902 -0.1426839 -0.030059364 -0.11574637 -0.12021398 -0.05806504 -0.10098336 -0.12981531
-0.16998193 -0.118040256 0.12357241 0.012238454 0.048357166 0.03144882 -0.17347904 -0.05411807
-0.06422558 0.0773193 -0.053061914 -0.0373208 0.17321834 0.16854946 -0.091241755 0.09134874
0.16304228 -0.063997604 0.12982887 0.13423946 -0.05771602 -0.057265766 0.070587814 -0.044691168
00000000: a64a 2dbe 482e a43d 1072 873d b90c 813d
00000010: 0bb1 743d f7f1 15be ab82 6e3a 8236 083e
00000020: ecab 14be b299 a03d 9bf1 2dbc 80d3 ab3d
00000030: 9a55 a7bd 2a4a 9fbd b6a7 21bd b139 9a3d
00000040: 1e7c e6bd ddb9 323e b7f6 4e3d 781a 3e3d
00000050: 11aa 8e3b 458a 963d 7b99 273e 6da4 ac3c
00000060: d1e0 933c 8583 9ebd 35bd 24be 97c2 2ebe
00000070: cad0 a13c c194 16be 1aa5 883b 1ccb c5bd
00000080: aaff cebd 2a21 53bd 917c 0e3e 106f b2bd
00000090: cbc7 d43b c7c2 1d3d 480d e73d 4d11 b1bc
000000a0: 5305 20be 357c 06be 28e4 d63d e42d b4bd
000000b0: a679 1bbe 7fc5 30be d284 09be e5a6 ab3d
000000c0: cf7b 03bd 1c5e d13d 135c a3bd 88ac 2dbd
000000d0: f2db b7bd f986 0ebd 6f2f ac3d 3b62 ca3d
000000e0: 1057 13bd 30f6 17bc 5a05 30be 3426 f0bd
000000f0: 5b6b c4bd d70f d73d b06e 2dbe 0c4d cbbc
00000100: 9cb4 76bd 21d3 803d 934d bbbd d75b 323e
00000110: 8a28 e73d 60a6 f53d 60d6 95bd 2d0c 293e
00000120: 4e1c 34be 23f5 fe3c 9966 c1bc d790 1ebe
00000130: ac5f 1c3e 0a90 0bbe 6000 313e 820d 253e
00000140: 7123 dd3d 1e90 a03b a4da 0d3d 6f4c 8fbd
00000150: 8ff9 9d3d 4af3 89bd 1f07 623d 5cc4 f5bd
00000160: c709 2f3e 03db 4d3d 9d15 1a3e 1228 1ebe
00000170: 4da5 fcbd 00a7 003e 35e8 09be 8fa9 fdbd
00000180: d0e2 a53d ba1b 12be 0e3f f6bc 6f0c edbd
00000190: bf32 f6bd 9bd5 6dbd 5dd0 cebd 4eee 04be
000001a0: be0f 2ebe 17bf f1bd 8813 fd3d cc83 483c
000001b0: 2a12 463d 7ad0 003d 7da4 31be e9aa 5dbd
000001c0: b388 83bd 9559 9e3d 7357 59bd b2dd 18bd
000001d0: 2660 313e 3b98 2c3e f5dc babd 0c15 bb3d
000001e0: 8ef4 263e 2d11 83bd dcf1 043e 1276 093e
000001f0: a267 6cbd 828f 6abd 5890 903d 160e 37bd

classifier.bias f4 [4]
0.03715978 -0.031352006 -0.1347784 0.15530927
00000000: da34 183d f66a 00bd 5903 0abe 6509 1f3e
